…
I0610 10:48:51.583786 28879 net.cpp:313] The NetState phase (0) differed from the phase (1) specified by a rule in layer RenjuData
I0610 10:48:51.583814 28879 net.cpp:313] The NetState phase (0) differed from the phase (1) specified by a rule in layer accuracy
I0610 10:48:51.583986 28879 net.cpp:49] Initializing net from parameters: 
name: "Net"
state {
  phase: TRAIN
}
layer {
  name: "RenjuData"
  type: "Data"
  top: "data"
  top: "label"
  include {
    phase: TRAIN
  }
  data_param {
    source: "train"
    batch_size: 64
    backend: LMDB
  }
}
layer {
  name: "conv1"
  type: "Convolution"
  bottom: "data"
  top: "conv1"
  param {
    lr_mult: 1
  }
  param {
    lr_mult: 2
  }
  convolution_param {
    num_output: 96
    pad: 2
    kernel_size: 5
    stride: 1
    weight_filler {
      type: "gaussian"
      std: 0.01
    }
    bias_filler {
      type: "constant"
      value: 0
    }
  }
}
layer {
  name: "relu1"
  type: "ReLU"
  bottom: "conv1"
  top: "conv1"
}
layer {
  name: "conv2"
  type: "Convolution"
  bottom: "conv1"
  top: "conv2"
  param {
    lr_mult: 1
  }
  param {
    lr_mult: 2
  }
  convolution_param {
    num_output: 128
    pad: 1
    kernel_size: 3
    stride: 1
    weight_filler {
      type: "gaussian"
      std: 0.01
    }
    bias_filler {
      type: "constant"
      value: 0.01
    }
  }
}
layer {
  name: "relu2"
  type: "ReLU"
  bottom: "conv2"
  top: "conv2"
}
layer {
  name: "conv3"
  type: "Convolution"
  bottom: "conv2"
  top: "conv3"
  param {
    lr_mult: 1
  }
  param {
    lr_mult: 2
  }
  convolution_param {
    num_output: 64
    pad: 1
    kernel_size: 3
    stride: 1
    weight_filler {
      type: "gaussian"
      std: 0.01
    }
    bias_filler {
      type: "constant"
      value: 0
    }
  }
}
layer {
  name: "relu3"
  type: "ReLU"
  bottom: "conv3"
  top: "conv3"
}
layer {
  name: "conv4"
  type: "Convolution"
  bottom: "conv3"
  top: "conv4"
  param {
    lr_mult: 10
  }
  param {
    lr_mult: 20
  }
  convolution_param {
    num_output: 64
    pad: 1
    kernel_size: 3
    stride: 1
    weight_filler {
      type: "gaussian"
      std: 0.01
    }
    bias_filler {
      type: "constant"
      value: 0
    }
  }
}
layer {
  name: "relu4"
  type: "ReLU"
  bottom: "conv4"
  top: "conv4"
}
layer {
  name: "ip1"
  type: "InnerProduct"
  bottom: "conv4"
  top: "ip1"
  param {
    lr_mult: 1
  }
  param {
    lr_mult: 2
  }
  inner_product_param {
    num_output: 225
    weight_filler {
      type: "xavier"
    }
    bias_filler {
      type: "constant"
    }
  }
}
layer {
  name: "relu4"
  type: "ReLU"
  bottom: "ip1"
  top: "ip1"
}
layer {
  name: "ip2"
  type: "InnerProduct"
  bottom: "ip1"
  top: "ip2"
  param {
    lr_mult: 1
  }
  param {
    lr_mult: 2
  }
  inner_product_param {
    num_output: 225
    weight_filler {
      type: "gaussian"
      std: 0.01
    }
    bias_filler {
      type: "constant"
    }
  }
}
layer {
  name: "relu5"
  type: "ReLU"
  bottom: "ip2"
  top: "ip2"
}
layer {
  name: "ip3"
  type: "InnerProduct"
  bottom: "ip2"
  top: "ip3"
  param {
    lr_mult: 1
  }
  param {
    lr_mult: 2
  }
  inner_product_param {
    num_output: 225
    weight_filler {
      type: "gaussian"
      std: 0.01
    }
    bias_filler {
      type: "constant"
    }
  }
}
layer {
  name: "loss"
  type: "SoftmaxWithLoss"
  bottom: "ip3"
  bottom: "label"
  top: "loss"
}
I0610 10:48:51.584074 28879 layer_factory.hpp:77] Creating layer RenjuData
I0610 10:48:51.584735 28879 net.cpp:91] Creating Layer RenjuData
I0610 10:48:51.584753 28879 net.cpp:399] RenjuData -> data
I0610 10:48:51.584779 28879 net.cpp:399] RenjuData -> label
I0610 10:48:51.585521 28887 db_lmdb.cpp:38] Opened lmdb train
I0610 10:48:51.585619 28879 data_layer.cpp:41] output data size: 64,7,15,15
I0610 10:48:51.585985 28879 net.cpp:141] Setting up RenjuData
I0610 10:48:51.586264 28879 net.cpp:148] Top shape: 64 7 15 15 (100800)
I0610 10:48:51.586308 28879 net.cpp:148] Top shape: 64 (64)
I0610 10:48:51.586338 28879 net.cpp:156] Memory required for data: 403456
I0610 10:48:51.586371 28879 layer_factory.hpp:77] Creating layer conv1
I0610 10:48:51.586416 28879 net.cpp:91] Creating Layer conv1
I0610 10:48:51.586450 28879 net.cpp:425] conv1 <- data
I0610 10:48:51.586493 28879 net.cpp:399] conv1 -> conv1
I0610 10:48:51.586911 28879 net.cpp:141] Setting up conv1
I0610 10:48:51.586962 28879 net.cpp:148] Top shape: 64 96 15 15 (1382400)
I0610 10:48:51.586997 28879 net.cpp:156] Memory required for data: 5933056
I0610 10:48:51.587043 28879 layer_factory.hpp:77] Creating layer relu1
I0610 10:48:51.587080 28879 net.cpp:91] Creating Layer relu1
I0610 10:48:51.587111 28879 net.cpp:425] relu1 <- conv1
I0610 10:48:51.587146 28879 net.cpp:386] relu1 -> conv1 (in-place)
I0610 10:48:51.587208 28879 net.cpp:141] Setting up relu1
I0610 10:48:51.587230 28879 net.cpp:148] Top shape: 64 96 15 15 (1382400)
I0610 10:48:51.587249 28879 net.cpp:156] Memory required for data: 11462656
I0610 10:48:51.587267 28879 layer_factory.hpp:77] Creating layer conv2
I0610 10:48:51.587292 28879 net.cpp:91] Creating Layer conv2
I0610 10:48:51.587312 28879 net.cpp:425] conv2 <- conv1
I0610 10:48:51.587334 28879 net.cpp:399] conv2 -> conv2
I0610 10:48:51.588637 28879 net.cpp:141] Setting up conv2
I0610 10:48:51.588670 28879 net.cpp:148] Top shape: 64 128 15 15 (1843200)
I0610 10:48:51.588688 28879 net.cpp:156] Memory required for data: 18835456
I0610 10:48:51.588711 28879 layer_factory.hpp:77] Creating layer relu2
I0610 10:48:51.588733 28879 net.cpp:91] Creating Layer relu2
I0610 10:48:51.588760 28879 net.cpp:425] relu2 <- conv2
I0610 10:48:51.588783 28879 net.cpp:386] relu2 -> conv2 (in-place)
I0610 10:48:51.588804 28879 net.cpp:141] Setting up relu2
I0610 10:48:51.588825 28879 net.cpp:148] Top shape: 64 128 15 15 (1843200)
I0610 10:48:51.588847 28879 net.cpp:156] Memory required for data: 26208256
I0610 10:48:51.588865 28879 layer_factory.hpp:77] Creating layer conv3
I0610 10:48:51.588891 28879 net.cpp:91] Creating Layer conv3
I0610 10:48:51.588912 28879 net.cpp:425] conv3 <- conv2
I0610 10:48:51.588932 28879 net.cpp:399] conv3 -> conv3
I0610 10:48:51.589804 28879 net.cpp:141] Setting up conv3
I0610 10:48:51.589831 28879 net.cpp:148] Top shape: 64 64 15 15 (921600)
I0610 10:48:51.589850 28879 net.cpp:156] Memory required for data: 29894656
I0610 10:48:51.589874 28879 layer_factory.hpp:77] Creating layer relu3
I0610 10:48:51.589895 28879 net.cpp:91] Creating Layer relu3
I0610 10:48:51.589913 28879 net.cpp:425] relu3 <- conv3
I0610 10:48:51.589934 28879 net.cpp:386] relu3 -> conv3 (in-place)
I0610 10:48:51.589956 28879 net.cpp:141] Setting up relu3
I0610 10:48:51.589982 28879 net.cpp:148] Top shape: 64 64 15 15 (921600)
I0610 10:48:51.589999 28879 net.cpp:156] Memory required for data: 33581056
I0610 10:48:51.590018 28879 layer_factory.hpp:77] Creating layer conv4
I0610 10:48:51.590040 28879 net.cpp:91] Creating Layer conv4
I0610 10:48:51.590059 28879 net.cpp:425] conv4 <- conv3
I0610 10:48:51.590080 28879 net.cpp:399] conv4 -> conv4
I0610 10:48:51.590538 28879 net.cpp:141] Setting up conv4
I0610 10:48:51.590564 28879 net.cpp:148] Top shape: 64 64 15 15 (921600)
I0610 10:48:51.590582 28879 net.cpp:156] Memory required for data: 37267456
I0610 10:48:51.590603 28879 layer_factory.hpp:77] Creating layer relu4
I0610 10:48:51.590626 28879 net.cpp:91] Creating Layer relu4
I0610 10:48:51.590646 28879 net.cpp:425] relu4 <- conv4
I0610 10:48:51.590667 28879 net.cpp:386] relu4 -> conv4 (in-place)
I0610 10:48:51.590687 28879 net.cpp:141] Setting up relu4
I0610 10:48:51.590708 28879 net.cpp:148] Top shape: 64 64 15 15 (921600)
I0610 10:48:51.590726 28879 net.cpp:156] Memory required for data: 40953856
I0610 10:48:51.590744 28879 layer_factory.hpp:77] Creating layer ip1
I0610 10:48:51.590782 28879 net.cpp:91] Creating Layer ip1
I0610 10:48:51.590801 28879 net.cpp:425] ip1 <- conv4
I0610 10:48:51.590826 28879 net.cpp:399] ip1 -> ip1
I0610 10:48:51.613431 28879 net.cpp:141] Setting up ip1
I0610 10:48:51.613502 28879 net.cpp:148] Top shape: 64 225 (14400)
I0610 10:48:51.613523 28879 net.cpp:156] Memory required for data: 41011456
I0610 10:48:51.613551 28879 layer_factory.hpp:77] Creating layer relu4
I0610 10:48:51.613575 28879 net.cpp:91] Creating Layer relu4
I0610 10:48:51.613595 28879 net.cpp:425] relu4 <- ip1
I0610 10:48:51.613617 28879 net.cpp:386] relu4 -> ip1 (in-place)
I0610 10:48:51.613643 28879 net.cpp:141] Setting up relu4
I0610 10:48:51.613663 28879 net.cpp:148] Top shape: 64 225 (14400)
I0610 10:48:51.613682 28879 net.cpp:156] Memory required for data: 41069056
I0610 10:48:51.613699 28879 layer_factory.hpp:77] Creating layer ip2
I0610 10:48:51.613723 28879 net.cpp:91] Creating Layer ip2
I0610 10:48:51.613744 28879 net.cpp:425] ip2 <- ip1
I0610 10:48:51.613764 28879 net.cpp:399] ip2 -> ip2
I0610 10:48:51.614372 28879 net.cpp:141] Setting up ip2
I0610 10:48:51.614397 28879 net.cpp:148] Top shape: 64 225 (14400)
I0610 10:48:51.614414 28879 net.cpp:156] Memory required for data: 41126656
I0610 10:48:51.614435 28879 layer_factory.hpp:77] Creating layer relu5
I0610 10:48:51.614455 28879 net.cpp:91] Creating Layer relu5
I0610 10:48:51.614475 28879 net.cpp:425] relu5 <- ip2
I0610 10:48:51.614493 28879 net.cpp:386] relu5 -> ip2 (in-place)
I0610 10:48:51.614514 28879 net.cpp:141] Setting up relu5
I0610 10:48:51.614534 28879 net.cpp:148] Top shape: 64 225 (14400)
I0610 10:48:51.614552 28879 net.cpp:156] Memory required for data: 41184256
I0610 10:48:51.614570 28879 layer_factory.hpp:77] Creating layer ip3
I0610 10:48:51.614590 28879 net.cpp:91] Creating Layer ip3
I0610 10:48:51.614609 28879 net.cpp:425] ip3 <- ip2
I0610 10:48:51.614631 28879 net.cpp:399] ip3 -> ip3
I0610 10:48:51.615237 28879 net.cpp:141] Setting up ip3
I0610 10:48:51.615264 28879 net.cpp:148] Top shape: 64 225 (14400)
I0610 10:48:51.615283 28879 net.cpp:156] Memory required for data: 41241856
I0610 10:48:51.615304 28879 layer_factory.hpp:77] Creating layer loss
I0610 10:48:51.615325 28879 net.cpp:91] Creating Layer loss
I0610 10:48:51.615345 28879 net.cpp:425] loss <- ip3
I0610 10:48:51.615363 28879 net.cpp:425] loss <- label
I0610 10:48:51.615386 28879 net.cpp:399] loss -> loss
I0610 10:48:51.615414 28879 layer_factory.hpp:77] Creating layer loss
…
I0610 10:48:51.615872 28879 net.cpp:274] Network initialization done.
I0610 10:48:51.616109 28879 solver.cpp:181] Creating test net (#0) specified by net file: tune.prototxt
I0610 10:48:51.616171 28879 net.cpp:313] The NetState phase (1) differed from the phase (0) specified by a rule in layer RenjuData
I0610 10:48:51.616314 28879 net.cpp:49] Initializing net from parameters: 
name: "Net"
state {
  phase: TEST
}
layer {
  name: "RenjuData"
  type: "Data"
  top: "data"
  top: "label"
  include {
    phase: TEST
  }
  data_param {
    source: "test"
    batch_size: 100
    backend: LMDB
  }
}
layer {
  name: "conv1"
  type: "Convolution"
  bottom: "data"
  top: "conv1"
  param {
    lr_mult: 1
  }
  param {
    lr_mult: 2
  }
  convolution_param {
    num_output: 96
    pad: 2
    kernel_size: 5
    stride: 1
    weight_filler {
      type: "gaussian"
      std: 0.01
    }
    bias_filler {
      type: "constant"
      value: 0
    }
  }
}
layer {
  name: "relu1"
  type: "ReLU"
  bottom: "conv1"
  top: "conv1"
}
layer {
  name: "conv2"
  type: "Convolution"
  bottom: "conv1"
  top: "conv2"
  param {
    lr_mult: 1
  }
  param {
    lr_mult: 2
  }
  convolution_param {
    num_output: 128
    pad: 1
    kernel_size: 3
    stride: 1
    weight_filler {
      type: "gaussian"
      std: 0.01
    }
    bias_filler {
      type: "constant"
      value: 0.01
    }
  }
}
layer {
  name: "relu2"
  type: "ReLU"
  bottom: "conv2"
  top: "conv2"
}
layer {
  name: "conv3"
  type: "Convolution"
  bottom: "conv2"
  top: "conv3"
  param {
    lr_mult: 1
  }
  param {
    lr_mult: 2
  }
  convolution_param {
    num_output: 64
    pad: 1
    kernel_size: 3
    stride: 1
    weight_filler {
      type: "gaussian"
      std: 0.01
    }
    bias_filler {
      type: "constant"
      value: 0
    }
  }
}
layer {
  name: "relu3"
  type: "ReLU"
  bottom: "conv3"
  top: "conv3"
}
layer {
  name: "conv4"
  type: "Convolution"
  bottom: "conv3"
  top: "conv4"
  param {
    lr_mult: 10
  }
  param {
    lr_mult: 20
  }
  convolution_param {
    num_output: 64
    pad: 1
    kernel_size: 3
    stride: 1
    weight_filler {
      type: "gaussian"
      std: 0.01
    }
    bias_filler {
      type: "constant"
      value: 0
    }
  }
}
layer {
  name: "relu4"
  type: "ReLU"
  bottom: "conv4"
  top: "conv4"
}
layer {
  name: "ip1"
  type: "InnerProduct"
  bottom: "conv4"
  top: "ip1"
  param {
    lr_mult: 1
  }
  param {
    lr_mult: 2
  }
  inner_product_param {
    num_output: 225
    weight_filler {
      type: "xavier"
    }
    bias_filler {
      type: "constant"
    }
  }
}
layer {
  name: "relu4"
  type: "ReLU"
  bottom: "ip1"
  top: "ip1"
}
layer {
  name: "ip2"
  type: "InnerProduct"
  bottom: "ip1"
  top: "ip2"
  param {
    lr_mult: 1
  }
  param {
    lr_mult: 2
  }
  inner_product_param {
    num_output: 225
    weight_filler {
      type: "gaussian"
      std: 0.01
    }
    bias_filler {
      type: "constant"
    }
  }
}
layer {
  name: "relu5"
  type: "ReLU"
  bottom: "ip2"
  top: "ip2"
}
layer {
  name: "ip3"
  type: "InnerProduct"
  bottom: "ip2"
  top: "ip3"
  param {
    lr_mult: 1
  }
  param {
    lr_mult: 2
  }
  inner_product_param {
    num_output: 225
    weight_filler {
      type: "gaussian"
      std: 0.01
    }
    bias_filler {
      type: "constant"
    }
  }
}
layer {
  name: "accuracy"
  type: "Accuracy"
  bottom: "ip3"
  bottom: "label"
  top: "accuracy"
  include {
    phase: TEST
  }
}
layer {
  name: "loss"
  type: "SoftmaxWithLoss"
  bottom: "ip3"
  bottom: "label"
  top: "loss"
}
I0610 10:48:51.616410 28879 layer_factory.hpp:77] Creating layer RenjuData
I0610 10:48:51.616528 28879 net.cpp:91] Creating Layer RenjuData
I0610 10:48:51.616555 28879 net.cpp:399] RenjuData -> data
I0610 10:48:51.616581 28879 net.cpp:399] RenjuData -> label
I0610 10:48:51.616591 28889 db_lmdb.cpp:38] Opened lmdb test
I0610 10:48:51.616652 28879 data_layer.cpp:41] output data size: 100,7,15,15
I0610 10:48:51.616706 28879 net.cpp:141] Setting up RenjuData
I0610 10:48:51.616731 28879 net.cpp:148] Top shape: 100 7 15 15 (157500)
I0610 10:48:51.616752 28879 net.cpp:148] Top shape: 100 (100)
I0610 10:48:51.616771 28879 net.cpp:156] Memory required for data: 630400
I0610 10:48:51.616793 28879 layer_factory.hpp:77] Creating layer label_RenjuData_1_split
I0610 10:48:51.616822 28879 net.cpp:91] Creating Layer label_RenjuData_1_split
I0610 10:48:51.616842 28879 net.cpp:425] label_RenjuData_1_split <- label
I0610 10:48:51.616865 28879 net.cpp:399] label_RenjuData_1_split -> label_RenjuData_1_split_0
I0610 10:48:51.616891 28879 net.cpp:399] label_RenjuData_1_split -> label_RenjuData_1_split_1
I0610 10:48:51.616915 28879 net.cpp:141] Setting up label_RenjuData_1_split
I0610 10:48:51.616938 28879 net.cpp:148] Top shape: 100 (100)
I0610 10:48:51.616960 28879 net.cpp:148] Top shape: 100 (100)
I0610 10:48:51.616977 28879 net.cpp:156] Memory required for data: 631200
I0610 10:48:51.616996 28879 layer_factory.hpp:77] Creating layer conv1
I0610 10:48:51.617022 28879 net.cpp:91] Creating Layer conv1
I0610 10:48:51.617041 28879 net.cpp:425] conv1 <- data
I0610 10:48:51.617063 28879 net.cpp:399] conv1 -> conv1
I0610 10:48:51.617324 28879 net.cpp:141] Setting up conv1
I0610 10:48:51.617352 28879 net.cpp:148] Top shape: 100 96 15 15 (2160000)
I0610 10:48:51.617372 28879 net.cpp:156] Memory required for data: 9271200
I0610 10:48:51.617395 28879 layer_factory.hpp:77] Creating layer relu1
I0610 10:48:51.617419 28879 net.cpp:91] Creating Layer relu1
I0610 10:48:51.617439 28879 net.cpp:425] relu1 <- conv1
I0610 10:48:51.617460 28879 net.cpp:386] relu1 -> conv1 (in-place)
I0610 10:48:51.617481 28879 net.cpp:141] Setting up relu1
I0610 10:48:51.617502 28879 net.cpp:148] Top shape: 100 96 15 15 (2160000)
I0610 10:48:51.617522 28879 net.cpp:156] Memory required for data: 17911200
I0610 10:48:51.617540 28879 layer_factory.hpp:77] Creating layer conv2
I0610 10:48:51.617565 28879 net.cpp:91] Creating Layer conv2
I0610 10:48:51.617585 28879 net.cpp:425] conv2 <- conv1
I0610 10:48:51.617607 28879 net.cpp:399] conv2 -> conv2
I0610 10:48:51.618922 28879 net.cpp:141] Setting up conv2
I0610 10:48:51.619696 28879 net.cpp:148] Top shape: 100 128 15 15 (2880000)
I0610 10:48:51.619716 28879 net.cpp:156] Memory required for data: 29431200
I0610 10:48:51.619740 28879 layer_factory.hpp:77] Creating layer relu2
I0610 10:48:51.619765 28879 net.cpp:91] Creating Layer relu2
I0610 10:48:51.619786 28879 net.cpp:425] relu2 <- conv2
I0610 10:48:51.619807 28879 net.cpp:386] relu2 -> conv2 (in-place)
I0610 10:48:51.619832 28879 net.cpp:141] Setting up relu2
I0610 10:48:51.619853 28879 net.cpp:148] Top shape: 100 128 15 15 (2880000)
I0610 10:48:51.619873 28879 net.cpp:156] Memory required for data: 40951200
I0610 10:48:51.619892 28879 layer_factory.hpp:77] Creating layer conv3
I0610 10:48:51.619915 28879 net.cpp:91] Creating Layer conv3
I0610 10:48:51.619935 28879 net.cpp:425] conv3 <- conv2
I0610 10:48:51.619958 28879 net.cpp:399] conv3 -> conv3
I0610 10:48:51.620834 28879 net.cpp:141] Setting up conv3
I0610 10:48:51.620862 28879 net.cpp:148] Top shape: 100 64 15 15 (1440000)
I0610 10:48:51.620882 28879 net.cpp:156] Memory required for data: 46711200
I0610 10:48:51.620904 28879 layer_factory.hpp:77] Creating layer relu3
I0610 10:48:51.620925 28879 net.cpp:91] Creating Layer relu3
I0610 10:48:51.620944 28879 net.cpp:425] relu3 <- conv3
I0610 10:48:51.620965 28879 net.cpp:386] relu3 -> conv3 (in-place)
I0610 10:48:51.620986 28879 net.cpp:141] Setting up relu3
I0610 10:48:51.621007 28879 net.cpp:148] Top shape: 100 64 15 15 (1440000)
I0610 10:48:51.621026 28879 net.cpp:156] Memory required for data: 52471200
I0610 10:48:51.621044 28879 layer_factory.hpp:77] Creating layer conv4
I0610 10:48:51.621070 28879 net.cpp:91] Creating Layer conv4
I0610 10:48:51.621090 28879 net.cpp:425] conv4 <- conv3
I0610 10:48:51.621111 28879 net.cpp:399] conv4 -> conv4
I0610 10:48:51.621568 28879 net.cpp:141] Setting up conv4
I0610 10:48:51.621597 28879 net.cpp:148] Top shape: 100 64 15 15 (1440000)
I0610 10:48:51.621615 28879 net.cpp:156] Memory required for data: 58231200
I0610 10:48:51.621636 28879 layer_factory.hpp:77] Creating layer relu4
I0610 10:48:51.621657 28879 net.cpp:91] Creating Layer relu4
I0610 10:48:51.621676 28879 net.cpp:425] relu4 <- conv4
I0610 10:48:51.621706 28879 net.cpp:386] relu4 -> conv4 (in-place)
I0610 10:48:51.621736 28879 net.cpp:141] Setting up relu4
I0610 10:48:51.621757 28879 net.cpp:148] Top shape: 100 64 15 15 (1440000)
I0610 10:48:51.621775 28879 net.cpp:156] Memory required for data: 63991200
I0610 10:48:51.621793 28879 layer_factory.hpp:77] Creating layer ip1
I0610 10:48:51.621816 28879 net.cpp:91] Creating Layer ip1
I0610 10:48:51.621835 28879 net.cpp:425] ip1 <- conv4
I0610 10:48:51.621856 28879 net.cpp:399] ip1 -> ip1
I0610 10:48:51.644506 28879 net.cpp:141] Setting up ip1
I0610 10:48:51.644585 28879 net.cpp:148] Top shape: 100 225 (22500)
I0610 10:48:51.644605 28879 net.cpp:156] Memory required for data: 64081200
I0610 10:48:51.644634 28879 layer_factory.hpp:77] Creating layer relu4
I0610 10:48:51.644659 28879 net.cpp:91] Creating Layer relu4
I0610 10:48:51.644678 28879 net.cpp:425] relu4 <- ip1
I0610 10:48:51.644701 28879 net.cpp:386] relu4 -> ip1 (in-place)
I0610 10:48:51.644726 28879 net.cpp:141] Setting up relu4
I0610 10:48:51.644747 28879 net.cpp:148] Top shape: 100 225 (22500)
I0610 10:48:51.644764 28879 net.cpp:156] Memory required for data: 64171200
I0610 10:48:51.644783 28879 layer_factory.hpp:77] Creating layer ip2
I0610 10:48:51.644806 28879 net.cpp:91] Creating Layer ip2
I0610 10:48:51.644825 28879 net.cpp:425] ip2 <- ip1
I0610 10:48:51.644846 28879 net.cpp:399] ip2 -> ip2
I0610 10:48:51.645460 28879 net.cpp:141] Setting up ip2
I0610 10:48:51.645485 28879 net.cpp:148] Top shape: 100 225 (22500)
I0610 10:48:51.645503 28879 net.cpp:156] Memory required for data: 64261200
I0610 10:48:51.645524 28879 layer_factory.hpp:77] Creating layer relu5
I0610 10:48:51.645545 28879 net.cpp:91] Creating Layer relu5
I0610 10:48:51.645563 28879 net.cpp:425] relu5 <- ip2
I0610 10:48:51.645583 28879 net.cpp:386] relu5 -> ip2 (in-place)
I0610 10:48:51.645604 28879 net.cpp:141] Setting up relu5
I0610 10:48:51.645624 28879 net.cpp:148] Top shape: 100 225 (22500)
I0610 10:48:51.645642 28879 net.cpp:156] Memory required for data: 64351200
I0610 10:48:51.645660 28879 layer_factory.hpp:77] Creating layer ip3
I0610 10:48:51.645681 28879 net.cpp:91] Creating Layer ip3
I0610 10:48:51.645699 28879 net.cpp:425] ip3 <- ip2
I0610 10:48:51.645721 28879 net.cpp:399] ip3 -> ip3
I0610 10:48:51.646328 28879 net.cpp:141] Setting up ip3
I0610 10:48:51.646338 28879 net.cpp:148] Top shape: 100 225 (22500)
I0610 10:48:51.646353 28879 net.cpp:156] Memory required for data: 64441200
I0610 10:48:51.646358 28879 layer_factory.hpp:77] Creating layer ip3_ip3_0_split
I0610 10:48:51.646365 28879 net.cpp:91] Creating Layer ip3_ip3_0_split
I0610 10:48:51.646369 28879 net.cpp:425] ip3_ip3_0_split <- ip3
I0610 10:48:51.646378 28879 net.cpp:399] ip3_ip3_0_split -> ip3_ip3_0_split_0
I0610 10:48:51.646386 28879 net.cpp:399] ip3_ip3_0_split -> ip3_ip3_0_split_1
I0610 10:48:51.646397 28879 net.cpp:141] Setting up ip3_ip3_0_split
I0610 10:48:51.646405 28879 net.cpp:148] Top shape: 100 225 (22500)
I0610 10:48:51.646409 28879 net.cpp:148] Top shape: 100 225 (22500)
I0610 10:48:51.646414 28879 net.cpp:156] Memory required for data: 64621200
I0610 10:48:51.646419 28879 layer_factory.hpp:77] Creating layer accuracy
I0610 10:48:51.646428 28879 net.cpp:91] Creating Layer accuracy
I0610 10:48:51.646433 28879 net.cpp:425] accuracy <- ip3_ip3_0_split_0
I0610 10:48:51.646438 28879 net.cpp:425] accuracy <- label_RenjuData_1_split_0
I0610 10:48:51.646445 28879 net.cpp:399] accuracy -> accuracy
…
